notebooks/mlruns/1/models/m-422f4426aade4a0895644962e51a429e/artifacts/data/model.pth (torch, 19005 bytes, 5 tensors)

weight f4 [64, 13]
-0.024181228 0.049771365 -0.21882212 -0.21958706 0.005144358 -0.42477804 0.24431473 0.048678212
-0.29500943 -0.14294192 0.07305843 0.099311724 0.3056996 0.32366756 0.21847296 0.31894854
0.37089407 -0.15660268 0.070791736 -0.17217822 0.11509738 0.30557272 0.17439152 -0.015048449
-0.02598721 -0.24387859 0.12426679 -0.38924903 0.15275668 0.11195509 -0.41624194 -0.05979568
-0.46813944 0.08944726 -0.4932847 0.12503807 0.21090017 -0.43912762 -0.3209068 0.2050129
-0.23556766 0.29210243 -0.20749511 -0.29025367 -0.17565104 0.23966715 -0.10404898 -0.0009921938
0.029211506 0.10849103 0.035147704 -0.15542567 0.2901646 -0.34366924 0.15259144 0.21042174
-0.001601155 0.2277687 -0.013131589 -0.048481405 0.06323547 -0.30104986 0.09868814 0.032676257
-0.31341472 0.06695475 0.379301 -0.07036403 -0.34463626 0.5187973 0.011558402 0.14524439
-0.08124185 0.033964172 -0.17858641 0.10800679 -0.015859919 -0.35506618 0.11667355 0.17994735
-0.25410223 -0.47040153 -0.22397439 0.04060152 -0.14674208 0.23266375 0.09151409 0.107881054
-0.027055738 0.16890852 -0.26521477 0.1389923 -0.24844533 -0.05806927 -0.16830392 -0.31433252
0.07108397 0.09373385 -0.21900715 0.28472233 0.20407958 0.16543862 -0.053338617 -0.16840819
0.25874248 -0.39856973 -0.109218344 0.15929902 -0.31764784 0.19538124 0.012671282 0.019407758
0.27302074 -0.10963077 0.25089753 0.006958545 0.17920107 -0.18830511 -0.14563043 0.2476682
0.29162052 -0.20817056 0.08076399 0.24473318 -0.19244304 -0.36471772 0.16272984 -0.3332459
-0.028891511 -0.21575496 -0.085137144 -0.06583579 0.13355328 0.07854573 -0.19715771 -0.21109974
0.02077355 -0.13203363 -0.06801026 0.21616098 -0.16534622 -0.103927195 -0.11377809 0.061167855
0.123484425 -0.16757198 -0.416972 -0.29161203 0.036068995 -0.31798276 0.027207047 -0.10914276
0.23617908 -0.013216425 -0.08761995 -0.10703421 -0.18881516 0.20388502 -0.293574 -0.26437244
-0.13440526 -0.058623448 -0.32432887 0.26736727 -0.13368541 -0.014696241 -0.2994455 0.22452734
0.15987535 -0.15656674 0.3134642 -0.28406063 -0.035845697 0.05239201 -0.017410824 -0.057909563
-0.23181447 -0.24750012 -0.085734315 -0.23343475 -0.12090364 -0.02563524 0.029640969 -0.102575794
0.05682629 -0.2926822 0.06546648 0.16810863 -0.033337712 -0.31599346 0.30550086 -0.47617278
0.0575757 0.14178373 0.01907913 0.23085156 -0.15891854 -0.023601703 -0.21170011 -0.05898885
0.01264989 -0.35534045 0.057682082 -0.07470365 0.1688268 -0.33858404 0.017090997 -0.41445783
-0.14512528 0.013876244 -0.58450884 -0.0767522 0.6500425 -0.14261813 0.08949221 0.0062676296
0.20611556 -0.14226387 -0.021828009 -0.12277771 -0.31728095 -0.005224179 -0.33370748 -0.03321003
0.15397811 -0.40096238 0.10389434 -0.16883762 -0.21127544 -0.38011497 -0.28762203 -0.0761085
0.06109959 -0.22845541 -0.008675569 -0.10051404 -0.24549493 -0.058224916 0.42591545 0.1788679
0.28369305 -0.24869569 0.20313536 0.13064364 0.28697208 -0.20857574 -0.10158166 0.1525751
0.17514487 -0.045751777 -0.23287898 -0.608389 -0.017515356 -0.18177229 -0.15168537 -0.04278514
00000000: b617 c6bc 0fdd 4b3d e812 60be 6edb 60be
00000010: 0192 a83b 827c d9be a42d 7a3e ce62 473d
00000020: 7a0b 97be 5e5f 12be a89f 953d f263 cb3d
00000030: a884 9c3e c1b7 a53e 60b7 5f3e 394d a33e
00000040: d4e5 bd3e 745c 20be 42fb 903d 7d4f 30be
00000050: 2db8 eb3d 0774 9c3e b193 323e c58d 76bc
00000060: 21e3 d4bc 4fbb 79be 967f fe3d a64b c7be
00000070: 3f6c 1c3e b648 e53d aa1d d5be 51ec 74bd
00000080: f9af efbe 2030 b73d d08f fcbe fb09 003e
00000090: 37f6 573e 56d5 e0be e54d a4be e7ee 513e
000000a0: a638 71be 738e 953e 9979 54be 219c 94be
000000b0: dedd 33be 4e6b 753e a217 d5bd 800c 82ba
000000c0: f84c ef3c 8c30 de3d 0af7 0f3d e827 1fbe
000000d0: 7490 943e 6af5 afbe ee40 1c3e cc78 573e
000000e0: d9dd d1ba 333c 693e e025 57bc 7094 46bd
000000f0: 9981 813d 3523 9abe 021d ca3d 8ad7 053d
00000100: e577 a0be 921f 893d be33 c23e 041b 90bd
00000110: 2a74 b0be e6cf 043f 745f 3d3c f2ba 143e
00000120: 2162 a6bd 041e 0b3d 5bdf 36be aa32 dd3d
00000130: a9ec 81bc 3ccb b5be 8bf2 ee3d 1e44 383e
00000140: b019 82be 78d8 f0be 8b59 65be c84d 263d
00000150: 8e43 16be 683f 6e3e bd6b bb3d bef0 dc3d
00000160: ffa3 ddbc 5bf6 2c3e 3bca 87be ff53 0e3e
00000170: 7468 7ebe 0bda 6dbd dd57 2cbe 31f0 a0be
00000180: 7994 913d 88f7 bf3d 6943 60be 20c7 913e
00000190: 3dfa 503e be68 293e 9879 5abd 3273 2cbe
000001a0: e579 843e 5511 ccbe dead dfbd 481f 233e
000001b0: bda2 a2be 0512 483e 359b 4f3c 05fd 9e3c
000001c0: 60c9 8b3e 1986 e0bd a475 803e 8204 e43b
000001d0: 7c80 373e 0ed3 40be 2520 15be bc9c 7d3e
000001e0: 494f 953e aa2a 55be 9767 a53d 569b 7a3e
000001f0: ca0f 45be 48bc babe a7a2 263e 359f aabe
00000200: e4ad ecbc deee 5cbe 625c aebd ead4 86bd
00000210: 31c2 083e 95dc a03d b6e3 49be 882a 58be
00000220: 4b2d aa3c d333 07be f748 8bbd 4e59 5d3e
00000230: 8550 29be c8d7 d4bd 7d04 e9bd 258b 7a3d
00000240: 67e5 fc3d fd97 2bbe 5b7d d5be 2c4e 95be
00000250: 15bd 133d a3ce a2be 50e1 de3c 3d86 dfbd
00000260: eed8 713e b489 58bc 1772 b3bd c034 dbbd
00000270: c358 41be 3cc7 503e 554f 96be d35b 87be
00000280: 88a1 09be 241f 70bd 6f0e a6be 5de4 883e
00000290: d4e4 08be 81c8 70bc ec50 99be 7fea 653e
000002a0: 5db6 233e 0853 20be 617e a03e 6570 91be
000002b0: f0d2 12bd 0199 563d 25a1 8ebc 9432 6dbd
000002c0: c660 6dbe ac70 7dbe 7995 afbd 8509 6fbe
000002d0: 549c f7bd ff00 d2bc 9ed1 f23c 4213 d2bd
000002e0: afc2 683d 71da 95be 4a13 863d ab24 2c3e
000002f0: 208d 08bd e5c9 a1be 9c6a 9c3e ebcc f3be
00000300: 7fd4 6b3d c12f 113e d64b 9c3c 5a64 6c3e
00000310: 8bbb 22be 5c58 c1bc eac7 58be 4b9e 71bd
00000320: 7c41 4f3c 2fef b5be 0c44 6c3d 3afe 98bd
00000330: efe0 2c3e e35a adbe 6b02 8c3c d133 d4be
00000340: b99b 14be 3059 633c 5fa2 15bf 4230 9dbd
00000350: 2f69 263f 7d0a 12be b147 b73d b060 cd3b
00000360: f50f 533e 9fad 11be a7d0 b2bc e172 fbbd
00000370: a672 a2be 972f abbb b5db aabe 3e07 08bd
00000380: 70ac 1d3e f14a cdbe 8ec6 d43d c5e3 2cbe
00000390: 9758 58be 6e9e c2be 3243 93be c6de 9bbd
000003a0: 9043 7a3d 37f0 69be f923 0ebc 4eda cdbd
000003b0: 0663 7bbe 407d 6ebd 9711 da3e 2629 373e
000003c0: 3740 913e 15aa 7ebe b702 503e 72c7 053e
000003d0: 01ee 923e e194 55be 0c0a d0bd a63c 1c3e
000003e0: 2d59 333e 3766 3bbd d477 6ebe 62bf 1bbf
000003f0: 5d7c 8fbc 8422 3abe 6953 1bbe 793f 2fbd

bias f4 [64]
0.14495382 -0.1847405 -0.040073868 0.36056086 0.2187121 -0.09267645 -0.009017231 0.2575804
-0.017117178 0.20357956 0.29959163 0.66095376 0.19696896 0.22609332 0.38805294 0.07468671
-0.40187067 -0.121410295 -0.029073397 0.063727744 0.057589293 0.1282989 0.43517497 -0.032232504
0.034230705 0.055473067 0.25944906 0.08800251 -0.33165658 0.07716994 0.10814733 -0.02134637
-0.5675221 -0.2472973 -0.014534198 -0.19112243 -0.33907568 0.36538774 0.2863159 0.16851898
-0.05347695 -0.23000582 0.24464864 -0.31716654 0.2105596 0.43420693 -0.061358914 0.06364496
0.47063136 0.034040734 -0.32819602 0.45600006 -0.014213395 0.5020798 0.4570209 0.152393
0.021919172 -0.3223196 0.4127417 0.27247727 0.34690577 0.3764917 0.17594095 0.079013616
00000000: c66e 143e 9d2c 3dbe 7f24 24bd 6f9b b83e
00000010: 11f6 5f3e 27cd bdbd 02bd 13bc 94e1 833e
00000020: 5339 8cbc 2977 503e 1364 993e 4434 293f
00000030: 3bb2 493e 0285 673e e0ae c63e 59f5 983d
00000040: fec1 cdbe f6a5 f8bd 552b eebc b183 823d
00000050: c0e2 6b3d c960 033e 41cf de3e 3b06 04bd
00000060: 7f35 0c3d ba37 633d 82d6 843e a93a b43d
00000070: e4ce a9be 460b 9e3d 597c dd3d 95de aebc
00000080: 2149 11bf 813b 7dbe d820 6ebc 99b5 43be
00000090: 549b adbe 1a14 bb3e ff97 923e 3d90 2c3e
000000a0: a50a 5bbd a586 6bbe 2c85 7a3e a763 a2be
000000b0: f09c 573e 5f50 de3e 7c53 7bbd 4a58 823d
000000c0: 98f6 f03e 4c6e 0b3d 4f09 a8be d778 e93e
000000d0: 4ddf 68bc 4d88 003f a5fe e93e e90c 1c3e
000000e0: d68f b33c 1307 a5be e152 d33e 2482 8b3e
000000f0: a29d b13e 85c3 c03e dd29 343e e4d1 a13d

weight f4 [32, 64]
0.15216193 -0.09120295 0.02768259 0.07060317 0.04259128 -0.08892836 0.13682915 0.10273789
-0.030540295 0.13316368 0.06829912 0.021059688 0.10966756 0.11925226 0.1340948 -0.13783361
-0.20248967 0.09119484 -0.04523674 0.020411525 0.11300836 0.015180284 0.041795943 0.13344936
-0.070573725 -0.09045628 -0.02968362 0.12090911 0.028004108 0.05724848 0.15873168 -0.17397931
-0.3839937 -0.1194791 0.12061407 0.07835159 -0.0973079 0.05394149 0.20850144 0.04804651
0.13558821 -0.12633663 0.17976432 -0.24366811 0.08549964 0.07446821 -0.10878731 0.0250121
-0.05640205 0.051375356 -0.12017893 0.02879416 -0.12836103 -0.02916201 0.13599597 0.11132334
-0.0691033 -0.10585463 0.18675314 0.06290169 0.21358521 0.03091806 -0.0072232354 -0.033368554
0.34948534 -0.17053773 0.004476942 0.026628762 -0.1089784 -0.21204916 0.12703949 -0.03451924
-0.1022164 -0.031170258 -0.101694755 0.07323212 0.071762964 -0.021671697 0.24323936 -0.00034064415
-0.41600153 -0.22244073 -0.11834668 -0.17302155 0.116432376 0.25606322 -0.078947164 -0.03029611
-0.3067092 -0.12745841 -0.15669096 0.11748002 0.011997277 -0.02374798 0.15056495 0.044852696
-0.42786607 -0.034510314 0.09467772 0.12467781 -0.18863262 -0.10079767 -0.0028632781 0.1596498
0.07293316 -0.35429528 0.16635664 0.04472839 0.09330724 0.062145855 -0.13563429 0.10772031
-0.009126238 -0.040161267 -0.15144648 -0.11292773 0.061888244 0.15418328 0.065911144 0.11341023
0.19602193 0.020551618 -0.038367208 0.08672042 0.18649283 0.12616399 0.19174378 -0.36386016
0.07173183 -0.07259187 -0.040931273 0.11291222 0.052562375 -0.33098513 -0.026161388 -0.08305176
-0.06299139 -0.03804682 0.1172328 0.0057293144 0.086049244 0.04820424 0.114428304 -0.10474384
-0.27275538 0.26644737 -0.0931097 0.06429261 0.030029964 0.12895548 -0.035913374 0.13086508
0.062704325 0.06341662 -0.1108684 0.1814712 0.012868099 -0.064655654 0.103966236 -0.017883813
-0.3670154 -0.11963631 0.016510518 0.27302217 0.10412 -0.043444283 0.22872727 0.07519987
0.0152055165 0.037185762 0.180329 -0.1761383 0.049098905 0.13714327 -0.10046718 -0.08792312
-0.05554309 -0.014743555 -0.035558388 -0.028481742 0.032586914 0.023764707 0.13495559 0.19941206
0.100809954 -0.18362406 0.16581434 0.1894639 0.1659408 -0.034936916 0.10260028 -0.17017028
0.17895031 -0.24824198 0.10994937 0.022606675 0.0057522273 -0.1709117 0.19447838 -0.05793015
-0.15697053 -0.10706611 -0.06063971 0.0625509 0.12892458 0.011615581 0.17497133 0.021059865
-0.2537922 0.13229603 -0.0550552 0.085906684 0.018710647 0.041092135 -0.043776907 -0.11804164
-0.16147847 0.02035159 -0.16974585 0.087909505 0.038857564 0.21123219 0.06324138 -0.09383258
-0.2895051 -0.04204944 0.15571547 0.12129766 -0.21948326 -0.0072197574 0.1271481 0.088890865
0.12186098 -0.15065002 0.22131203 -0.19226696 0.03811783 0.01556065 -0.053581104 0.07282398
0.06260795 -0.10029747 0.09239921 -0.031779036 -0.18576254 0.03372744 0.16461098 0.22883046
0.20229204 -0.22121182 -0.0006040865 0.052295137 0.23028411 0.010062842 0.10171413 -0.2465891
00000000: 56d0 1b3e 9dc8 babd 99c6 e23c 6598 903d
00000010: 3274 2e3d 1220 b6bd f11c 0c3e 3e68 d23d
00000020: a42f fabc 0f5c 083e 69e0 8b3d 5e85 ac3c
00000030: 6399 e03d 873a f43d 2650 093e 4124 0dbe
00000040: 7459 4fbe 5cc4 ba3d 294a 39bd 1236 a73c
00000050: ed70 e73d bab6 783c 3932 2b3d f3a6 083e
00000060: f588 90bd 2441 b9bd 102b f3bc 329f f73d
00000070: df68 e53c 627d 6a3d 8f8a 223e a227 32be
00000080: d29a c4be 75b1 f4bd 8204 f73d cc76 a03d
00000090: 5d49 c7bd c0f1 5c3d 6781 553e 6bcc 443d
000000a0: a3d7 0a3e 645e 01be 2314 383e 2284 79be
000000b0: 6f1a af3d ca82 983d e2cb debd 2de6 cc3c
000000c0: d605 67bd f76e 523d 5f20 f6bd bbe1 eb3c
000000d0: 1371 03be 2be5 eebc 8742 0b3e 7efd e33d
000000e0: 0886 8dbd 50ca d8bd 373c 3f3e 9ad2 803d
000000f0: 15b6 5a3e df47 fd3c e4b0 ecbb 77ad 08bd
00000100: beef b23e 71a1 2ebe 50b3 923b 9024 da3c
00000110: 1130 dfbd 6a23 59be a416 023e 0c64 0dbd
00000120: d556 d1bd c558 ffbc 5745 d0bd b9fa 953d
00000130: 76f8 923d d888 b1bc bd13 793e 7c98 b2b9
00000140: 27fe d4be 81c7 63be bf5f f2bd 902c 31be
00000150: 1974 ee3d b81a 833e 0daf a1bd 8c2f f8bc
00000160: fd08 9dbe 7584 02be 9873 20be 5d99 f03d
00000170: 3a90 443c 208b c2bc b32d 1a3e 76b7 373d
00000180: 4311 dbbe b05a 0dbd 64e6 c13d 1457 ff3d
00000190: e928 41be 026f cebd d6a5 3bbb 3d7b 233e
000001a0: fb5d 953d 3166 b5be 6559 2a3e 1e35 373d
000001b0: de17 bf3d a78c 7e3d b7e3 0abe 779c dc3d
000001c0: 3786 15bc 2480 24bd c914 1bbe a746 e7bd
000001d0: 877e 7d3d 39e2 1d3e 6cfc 863d 9f43 e83d
000001e0: f9b9 483e de5b a83c ef26 1dbd 7a9a b13d
000001f0: faf7 3e3e 2231 013e 7b58 443e e14b babe
00000200: 23e8 923d 0cab 94bd 8da7 27bd 863e e73d
00000210: a54b 573d e276 a9be 6850 d6bc 0b17 aabd
00000220: a101 81bd fbd6 1bbd c017 f03d f9bc bb3b
00000230: 963a b03d cf71 453d 6359 ea3d f083 d6bd
00000240: 98a6 8bbe ca6b 883e 4cb0 bebd d8ab 833d
00000250: 6601 f63c e80c 043e e719 13bd 7f01 063e
00000260: 206b 803d 93e0 813d f90e e3bd 96d3 393e
00000270: b8d4 523c 2f6a 84bd 40ec d43d 1381 92bc
00000280: 71e9 bbbe e203 f5bd 1141 873c 90c9 8b3e
00000290: de3c d53d a2f2 31bd 7b37 6a3e 6402 9a3d
000002a0: 8f20 793c 1950 183d 2aa8 383e 995d 34be
000002b0: ef1b 493d 496f 0c3e bdc1 cdbd 0911 b4bd
000002c0: 2781 63bd f48e 71bc aca5 11bd 8b52 e9bc
000002d0: db79 053d 34ae c23c cc31 0a3e ad32 4c3e
000002e0: 7375 ce3d f207 3cbe 3ccb 293e d302 423e
000002f0: 63ec 293e 031a 0fbd 1820 d23d 1e41 2ebe
00000300: c03e 373e 2533 7ebe 232d e13d a231 b93c
00000310: 2e7d bc3b 7a03 2fbe 5725 473e 2a48 6dbd
00000320: e2bc 20be 7a45 dbbd 5861 78bd b01a 803d
00000330: ce04 043e 474f 3e3c af2b 333e bd85 ac3c
00000340: 0df1 81be 9c78 073e 9081 61bd d8ef af3d
00000350: 1247 993c 3a50 283d 6a4f 33bd d1bf f1bd
00000360: 9d5a 25be 61b8 a63c dbd1 2dbe e609 b43d
00000370: 1c29 1f3d 404d 583e b284 813d 4c2b c0bd
00000380: 033a 94be 093c 2cbd e073 1f3e e86a f83d
00000390: 38c0 60be b793 ecbb 1d33 023e 6a0c b63d
000003a0: 4092 f93d 0044 1abe 9f9f 623e a1e1 44be
000003b0: 7121 1c3d 19f2 7e3c dc77 5bbd bd24 953d
000003c0: 9938 803d c368 cdbd cc3b bd3d bc2a 02bd
000003d0: 8938 3ebe c925 0a3d c88f 283e 8852 6a3e
000003e0: a525 4f3e 5a85 62be 8f5b 1eba 6d33 563d
000003f0: 99cf 6b3e 9ede 243c 7f4f d03d da81 7cbe

bias f4 [32]
0.14985438 0.13549672 0.0971941 0.17655541 -0.10947382 -0.019639667 0.09577421 0.16647987
0.24573317 -0.14380829 0.21271637 0.24134544 0.07240055 0.12308929 -0.036105156 0.18313092
0.1933973 -0.1315014 0.037210524 0.13334423 -0.09715821 0.16652432 0.03570043 0.112639725
0.03859654 0.11986792 0.19524601 0.048791658 0.075516164 0.14675888 -0.023948066 0.19113196
00000000: 6d73 193e a7bf 0a3e b30d c73d f1ca 343e
00000010: cf33 e0bd 5ee3 a0bc 4525 c43d b379 2a3e
00000020: 7aa1 7b3e 7b42 13be 52d2 593e 4223 773e
00000030: bd46 943d 3d16 fc3d 00e3 13bd ac86 3b3e
00000040: f109 463e 4ea8 06be 106a 183d 648b 083e
00000050: e2fa c6bd 5a85 2a3e 9d3a 123d a8af e63d
00000060: 6817 1e3d 507d f53d 92ee 473e c3d9 473d
00000070: 38a8 9a3d f647 163e bc2e c4bc 19b8 433e

weight f4 [1, 32]
-0.18436977 -0.53324157 -0.28949788 -0.31728455 -0.0029581117 0.071245834 -0.24760309 -0.3804775
-0.2690845 0.8372064 -0.56066674 -0.5512128 -0.23172654 -0.7280344 0.11792447 -0.3074433
-0.22268802 1.0139656 0.46614408 -0.25183368 1.0633197 -0.3685279 -0.39516097 -0.189861
-0.21027076 -0.29976565 -0.23783721 -0.33085653 -0.23088086 -0.6857072 -0.3467602 0.3512207
00000000: 6ecb 3cbe 8582 08bf 1139 94be 1f73 a2be
00000010: e1dc 41bb 56e9 913d aa8b 7dbe f2cd c2be
00000020: 72c5 89be 2953 563f db87 0fbf 481c 0dbf
00000030: b949 6dbe 7660 3abf 6282 f13d 3569 9dbe
00000040: 5408 64be a0c9 813f 70aa ee3e 58f0 80be
00000050: dc1a 883f b0af bcbe 8a52 cabe ec6a 42be
00000060: 3851 57be e27a 99be 998b 73be 0766 a9be
00000070: 086c 6cbe 828a 2fbf 8e8a b1be 33d3 b33e
